…
Average actions of items: 59.45303210463734
The number of inters: 100000
The sparsity of the dataset: 93.70575143257098%
Remain Fields: ['user_id', 'item_id', 'rating', 'timestamp']
Fri 13 Dec 2024 16:56:53 INFO  [Training]: train_batch_size = [2048] train_neg_sample_args: [{'distribution': 'uniform', 'sample_num': 1, 'alpha': 1.0, 'dynamic': False, 'candidate_num': 0}]
Fri 13 Dec 2024 16:56:53 INFO  [Evaluation]: eval_batch_size = [4096] eval_args: [{'split': {'RS': [0.8, 0.1, 0.1]}, 'order': 'RO', 'group_by': 'user', 'mode': {'valid': 'full', 'test': 'full'}}]
Fri 13 Dec 2024 16:56:53 INFO  NeuMF(
  (user_mf_embedding): Embedding(944, 64)
  (item_mf_embedding): Embedding(1683, 64)
  (user_mlp_embedding): Embedding(944, 64)
  (item_mlp_embedding): Embedding(1683, 64)
  (mlp_layers): MLPLayers(
    (mlp_layers): Sequential(
      (0): Dropout(p=0.1, inplace=False)
      (1): Linear(in_features=128, out_features=128, bias=True)
      (2): ReLU()
      (3): Dropout(p=0.1, inplace=False)
      (4): Linear(in_features=128, out_features=64, bias=True)
      (5): ReLU()
    )
  )
  (predict_layer): Linear(in_features=128, out_features=1, bias=True)
  (sigmoid): Sigmoid()
  (loss): BCEWithLogitsLoss()
)
Trainable parameters: 361153
Fri 13 Dec 2024 16:56:53 INFO  FLOPs: 24960.0
Fri 13 Dec 2024 16:56:53 INFO  epoch 0 training [time: 0.33s, train loss: 46.5348]
Fri 13 Dec 2024 16:56:53 INFO  epoch 0 evaluating [time: 0.31s, valid_score: 0.213700]
Fri 13 Dec 2024 16:56:53 INFO  valid result: 
recall@10 : 0.0984    mrr@10 : 0.2137    ndcg@10 : 0.1117    hit@10 : 0.5058    precision@10 : 0.0861
…
Remain Fields: ['entity_id', 'user_id', 'item_id', 'rating', 'timestamp', 'head_id', 'relation_id', 'tail_id']
The number of entities: 34629
The number of relations: 26
The number of triples: 91631
The number of items that have been linked to KG: 1598
Fri 13 Dec 2024 16:57:32 INFO  [Training]: train_batch_size = [2048] train_neg_sample_args: [{'distribution': 'uniform', 'sample_num': 1, 'alpha': 1.0, 'dynamic': False, 'candidate_num': 0}]
Fri 13 Dec 2024 16:57:32 INFO  [Evaluation]: eval_batch_size = [4096] eval_args: [{'split': {'RS': [0.8, 0.1, 0.1]}, 'order': 'RO', 'group_by': 'user', 'mode': {'valid': 'full', 'test': 'full'}}]
Fri 13 Dec 2024 16:57:32 INFO  KTUP(
  (user_embedding): Embedding(944, 64)
  (item_embedding): Embedding(1599, 64)
  (pref_embedding): Embedding(26, 64)
  (pref_norm_embedding): Embedding(26, 64)
  (entity_embedding): Embedding(34629, 64)
  (relation_embedding): Embedding(26, 64)
  (relation_norm_embedding): Embedding(26, 64)
  (rec_loss): BPRLoss()
  (kg_loss): MarginRankingLoss()
  (reg_loss): EmbMarginLoss()
)
Trainable parameters: 2385664
Fri 13 Dec 2024 16:57:32 INFO  FLOPs: 192.0
Fri 13 Dec 2024 16:57:32 INFO  epoch 0 training [time: 0.50s, train_loss1: 25.4238, train_loss2: 1.1933, train_loss3: 30.8860]
Fri 13 Dec 2024 16:57:33 INFO  epoch 0 evaluating [time: 0.38s, valid_score: 0.060000]
Fri 13 Dec 2024 16:57:33 INFO  valid result: 
…
